hw1/project/weight.npy (npy, 1432 bytes, 1 tensors)

array f8 [163, 1]
00000000: ff5a ad42 89ba 3540 efd6 19a6 63cf e13f
00000010: 9fd2 c103 1d41 c9bf 4283 cda4 4094 76bf
00000020: b324 c71e 5e1b f2bf eb0c 7744 695c a7bf
00000030: 1a3e bac1 9a83 cabf 69e2 1383 285c abbf
00000040: e5eb c764 b245 c7bf 9631 1f0b ea81 f53f
00000050: 8535 c776 0668 bb3f 39b4 a229 9522 c83f
00000060: e917 6adf 623f 98bf 4855 d704 b8b9 c0bf
00000070: b4bc 36b4 4602 babf 5231 f914 1210 a5bf
00000080: 316e 2127 ff20 c2bf c7f2 3855 84fc d83f
00000090: 5d2e 6728 98b1 e13f 3bd0 9da4 d989 ad3f
000000a0: 8864 1e1a 5798 a2bf d407 772b bd6b 92bf
000000b0: 396b 6f66 9825 7cbf 1397 2209 2201 b23f
000000c0: c6ca ae1b 96b2 aebf 1321 7577 386a c3bf
000000d0: f835 6325 6797 bb3f 66b6 5cf7 72cf dc3f
000000e0: f4b0 362f e989 c23f 2b0b 944a 2728 d23f
000000f0: a005 b512 4f66 bcbf ca52 8329 7688 c43f
00000100: d0df 0cff 8507 c33f 13a4 52a9 ddec dcbf
00000110: 553f 9430 360f d63f f147 a337 8824 c23f
00000120: f1a3 10c1 c588 ae3f af10 d087 b5ed d13f
00000130: 7a19 1e00 3ebf 963f 1d0d 9544 6d62 cb3f
00000140: 4fdf eb77 5c55 c5bf fd14 6188 a2ba adbf
00000150: 9d81 699f c836 c5bf 6c63 8d32 f310 cb3f
00000160: 44b8 f50e 8b0b cc3f aac7 f9fb 519c d0bf
00000170: 00ea 3dd9 0230 77bf dbfd a64c 8c40 d9bf
00000180: 54af e042 22f6 b5bf 7d78 7d6d bb0d c0bf
00000190: cfff d06b 67ea b5bf 0ac9 e45d fc9f 973f
000001a0: 5cd4 61ce dcce e0bf 581a 90f8 78e4 debf
000001b0: 674e 81fe f1fc f03f 5942 b2ce 34d1 a5bf
000001c0: 7398 462e 3fc4 d7bf 4c21 0ce4 1782 a83f
000001d0: ebc0 fe97 75ef c23f 1873 322a 88b1 9abf
000001e0: 40f0 5af9 72b3 bb3f c2dc 348b 000a d3bf
000001f0: d7c8 9edd bc89 ad3f f670 49f1 d891 ef3f
00000200: 0497 0a81 b800 a7bf 10c9 b34c c7b8 843f
00000210: 005c 1fb1 8857 d4bf 9602 4365 b9aa a3bf
00000220: 8b74 024c c16d c4bf 4365 54de f792 d3bf
00000230: c81f ac87 b4b6 eebf a010 4bc1 7750 ddbf
00000240: 95ac 5e37 7146 0540 bf4a 7045 b7f7 cfbf
00000250: 0a15 812d 6b80 c53f 9994 115c b241 db3f
00000260: 767f 0d54 3350 c53f 1785 0bc4 5842 c9bf
00000270: b12a efde 3be4 3a3f e2c8 d3ae 66d2 c83f
00000280: 0bd5 4758 6816 c1bf 18b6 79ec 2974 f93f
00000290: 458e 0d91 8e5c d0bf 9ef2 a24c a6fd e43f
000002a0: 34ff 1921 c3af e63f 9616 dc6d f459 f4bf
000002b0: 2b85 fcbe 8a89 db3f b0e9 b8b2 cbbe 0d40
000002c0: 167a 450c 2dc6 17c0 3027 1d1d 5f53 f93f
000002d0: 487f 154d c101 2b40 2943 0c01 f52e bc3f
000002e0: 45fe 58cf 1860 84bf 5f0c 19d0 8c88 bbbf
000002f0: 898d c8cd 20bf a7bf 1359 8458 48fa b3bf
00000300: 422f 433e 4526 c23f 986e cb06 a140 a83f
00000310: 5412 0cea c207 aabf 4c3e 9dd4 7a67 d0bf
00000320: b04e 356e 385a debf 80f5 626f 9173 e33f
00000330: 38fa 04b4 6806 d3bf 6161 91ed 676c cabf
00000340: 105f 0ba7 1e02 e9bf 553c 3614 870c d43f
00000350: 1327 f138 6034 f5bf a85a 65ca af58 b33f
00000360: 5e8f e204 e4c0 f43f 806b 26b5 5b93 e4bf
00000370: 5ed1 691d 2697 e73f 77a8 f24b b7a6 bebf
00000380: 4458 4a2e b84e c8bf 697a 7ccd 4a3e a3bf
00000390: c5ff 5846 c442 b13f ece0 d7c4 7b06 9bbf
000003a0: 60bc 7389 9b4f c73f b70c 791f 22c9 d33f
000003b0: 274a fcab 6db4 c1bf 869d 2d5d 1da7 c7bf
000003c0: fd0a 27e8 d418 cdbf 6e14 91a9 2133 b33f
000003d0: 8d8b 688b 49cf c73f 38a0 4887 953e db3f
000003e0: 89ae dfc5 e067 ddbf 52da c781 799e d1bf
000003f0: b3b3 2d74 d15a bcbf f105 f2ec 2019 873f
00000400: a9ee ef98 2c29 d33f 72a4 786d 20db c8bf
00000410: 9d42 b48c 0137 c93f 1a4f 7a47 6951 c33f
00000420: 1a5f 4c32 1e6a b7bf f7c7 b41e b0cd d3bf
00000430: 6fb8 268a 126a b73f 7752 ddfd 4a1d b73f
00000440: 25cf 4aa2 dd94 d2bf a740 be53 8dab babf
00000450: b284 f806 8515 ca3f c895 df40 c23c cbbf
00000460: 63a6 95c0 362c b5bf c895 85b7 cfed aa3f
00000470: 6ced 517e 7977 b2bf a843 125b 454a cdbf
00000480: cf78 199c c225 acbf 5d7f 9150 0530 b3bf
00000490: 59cb b317 13d9 c8bf 327d 130e fbd5 c63f
000004a0: 7d4d 5ea1 3c54 c5bf 31b2 5a74 838e babf
000004b0: 1ca4 dff3 2eb5 c83f 4466 4dac 663f ba3f
000004c0: 9943 5198 1e5d d1bf 96b0 40a2 d106 c3bf
000004d0: a399 c906 5815 b6bf a74c 5233 95c0 ba3f
000004e0: 5aed 965e 2d2f c9bf 4f38 a307 4366 b3bf
000004f0: 5988 db65 20b1 b63f 45e6 731d 1b18 d23f
00000500: 8eee 6876 260c ddbf c135 9fa6 0e12 c8bf
00000510: 7c77 d685 862b cb3f
21.72865692837058 0.5565660709532646 -0.19729960139706734 -0.00551247836560337 -1.1316815569173684 -0.045626916511105474 -0.20714125117636756 -0.05343748664922005
-0.1818144790739488 1.3442173418471604 0.10705604934556419 0.1885553792284627 -0.023679299245962602 -0.13066768871673617 -0.10159723186255826 -0.041138234195929116
-0.14163197909043526 0.39041240999703714 0.5529289998170942 0.057692338318617385 -0.0363185138114171 -0.01798911645688135 -0.0068717911844611785 0.0703297874739202
-0.05995625579762058 -0.1516790946282148 0.10777897513181489 0.4501616874357296 0.1448337059531536 0.28370077403103505 -0.11093610960690237 0.16041447665215564
0.14866709664943167 -0.45195714507514245 0.34467844718982593 0.14173987118425616 0.059637241189484665 0.28013361227955164 0.02221390605657223 0.21394124840490117
-0.16666751723800607 -0.05806453623567085 -0.16573436530871968 0.21145477264760915 0.21910227041684227 -0.2595410309505676 -0.0056610213540531085 -0.3945646999891019
-0.08578695423846955 -0.1254190716380811 -0.08560797102199945 0.023071234923187446 -0.5252517729665089 -0.482694857346734 1.0617542211156434 -0.04261174224041459
-0.3713529540931468 0.04786753329068691 0.1479327194370009 -0.026067855430130654 0.10820692622923023 -0.2974854812086499 0.057691480687383105 0.9865536415705083
-0.04492737364971158 0.010118062046306636 -0.31784264847868826 -0.038411897288374394 -0.1595994588032322 -0.3058452292621789 -0.9598028802729397 -0.45803636432925465
2.659395630432821 -0.24974718943174953 0.167981526583539 0.4258848094089643 0.16651002506386775 -0.19733724186429732 0.00041033231439927947 0.1939209321640823
-0.13349632559371857 1.5908602940866157 -0.25564922490432124 0.6559630867773938 0.7089553495897918 -1.2719616214175509 0.4302698960401183 3.718161960857479
-5.943531219234975 1.5828543793927103 13.503427895425958 0.11009150767882815 -0.00994891531729459 -0.10755233841432375 -0.04638006698612702 -0.07803775940951523
0.1417929224029369 0.047368080214906516 -0.050840464658936796 -0.2563159061728342 -0.474256618142344 0.6078574347990724 -0.29726617412589773 -0.2064332876204942
-0.7815087568842234 0.31326462720693843 -1.3252870773598644 0.07557200137430675 1.2970924559421841 -0.6429880655372102 0.7372007917861472 -0.1197313843173634
-0.18990232715867894 -0.03758462675454128 0.06742502896759024 -0.026391919984207243 0.182116930117874 0.3091512019493154 -0.13831873796205338 -0.1847874360057455
-0.22732030234882208 0.07499895467579318 0.1860134058670976 0.425694830048545 -0.4594652111397655 -0.2752975242032437 -0.1107607754363034 0.011278397780418255
0.2993880742576303 -0.19418721528316812 0.19699115152663618 0.150921974087958 -0.09146298149095991 -0.30942919729852697 0.09146228669007582 0.09029072473397003
-0.29033604477739267 -0.10418017668257794 0.2037817272221552 -0.21279171149869414 -0.08270590020915729 0.05259560694939186 -0.07213553747162899 -0.22882906863062868
-0.05497558742057295 -0.07495148865700459 -0.19412459046688005 0.17840517222701063 -0.1666332042628759 -0.10373708334618283 0.19302927883043786 0.10252992350196971
-0.2713085639452913 -0.1486455957650647 -0.08626318135939086 0.10450108054128525 -0.1967522346366007 -0.07577914177383714 0.08864023672825407 0.2827213084816303
-0.4538665920588095 -0.18805106292567866 0.21226579222723874
